psdet/models/point_detector/model.onnx (onnx, 738332 bytes, 20 tensors)

111 f4 [32, 2, 1]
0	0x3eba8b55	0.36434427
1	0xbe9fcb92	-0.3121
2	0xbe0c5eb9	-0.13708009
3	0x3ea9edc9	0.33189228
4	0xbf2a6adc	-0.66569304
5	0x3ed91ea8	0.424062
6	0xbe14f5d5	-0.14546902
7	0x3eb82f1d	0.35973445
8	0x3dc9512d	0.09829936
9	0xbdb15133	-0.08658066
10	0x3e48d46a	0.1961228
11	0x3d0ee120	0.034882665
12	0x3e8439df	0.25825402
13	0xbe8d160d	-0.27555886
14	0xbd532a4f	-0.05155402
15	0xbd825f73	-0.06365862
16	0x3dd1e674	0.102490336
17	0xbb391f79	-0.002824752
18	0x3f1e3d83	0.6181261
19	0x3e615318	0.22004354
20	0xbe86d325	-0.26332965
21	0xbedaa801	-0.42706302
22	0xbdf2bb6f	-0.11852156
23	0xbe9c2946	-0.3050024
24	0xbe680742	-0.22659019
25	0x3d0aade2	0.033857234
26	0x3ed7d1f9	0.42152384
27	0x3ec4c7c2	0.38433653
28	0xbf30f469	-0.6912294
29	0x3ee06f1e	0.43834776
30	0x3e4a47b1	0.1975391
31	0x3f2bb4be	0.67072666
32	0x3eeef74b	0.46673045
33	0xbf24eec6	-0.6442684
34	0xbf2c1d25	-0.6723197
35	0xbeae9f3c	-0.3410586
36	0x3f1ef454	0.62091565
37	0xbdf1376a	-0.117781475
38	0x3e9aefe5	0.3026115
39	0xbea83e1f	-0.32859895
40	0x3f319e59	0.69382244
41	0xbe992d5f	-0.29917428
42	0x3f07c00d	0.5302742
43	0x3c09300d	0.008373273
44	0xbebeba32	-0.3725143
45	0x3eba17a2	0.36346155
46	0xbec02d2c	-0.37534463
47	0x3e54f417	0.20796238
48	0xbe5114dd	-0.20418115
49	0xbd9ec44b	-0.07752284
50	0xbf2e076a	-0.6798006
51	0xbeac9cd0	-0.33713388
52	0x3ec4741a	0.38369828
53	0xbe300180	-0.17188072
54	0x3f344da6	0.7043098
55	0x3f111a2e	0.5668057
56	0xbd079d72	-0.033109136
57	0xbef1a74b	-0.47197947
58	0x3edc777d	0.43059912
59	0x3e60b8ae	0.2194545
60	0xbeea071c	-0.4570855
61	0x3eeb28ba	0.4592951
62	0x3edbcb11	0.42928365
63	0x3f208b59	0.6271263

112 f4 [32]
0	0xbecaf178	-0.3963735
1	0xbdee5fac	-0.11639342
2	0xbc606d32	-0.013697909
3	0x3dd38345	0.10327772
4	0xbf0960d1	-0.53663355
5	0xbf007469	-0.5017763
6	0x3ec4f31f	0.38466737
7	0xbe29ca19	-0.16581
8	0x3eb0d86b	0.34540114
9	0x3d251e1a	0.04031191
10	0x3e6dbef0	0.23217368
11	0x3e1f3733	0.155484
12	0x3e83a2eb	0.25710234
13	0x3eb3772e	0.35051864
14	0xbf27a4b2	-0.6548568
15	0x3eb63b55	0.35592142
16	0xbefe8e77	-0.49718067
17	0xbf08947c	-0.5335157
18	0x3d3022e9	0.043002043
19	0xbdf6c653	-0.12049546
20	0x3ed4a208	0.4152987
21	0xbed1ab1f	-0.40950868
22	0xbf20ec0f	-0.62860197
23	0x3f03bd54	0.51460767
24	0xbdd6bbe3	-0.10485055
25	0x3ecba157	0.3977153
26	0x3e68c74e	0.22732279
27	0xbf07bdc2	-0.5302392
28	0x3e117715	0.14205582
29	0x3e2deb87	0.16984378
30	0xbef267a7	-0.47344705
31	0xbeabc6c6	-0.3355009

114 f4 [64, 32, 1]
0	0x3d76e439	0.060276244
1	0x3d01b2ac	0.031664535
2	0xbd9a0024	-0.07519558
3	0xbd5b3049	-0.053512845
4	0x3e25caaa	0.16190591
5	0xbd05f813	-0.032707285
6	0x3dcc1d04	0.09966472
7	0x3d9cc35c	0.07654449
8	0xbdea05f0	-0.11426914
9	0xbe19f183	-0.15033536
10	0x3e2dc1ee	0.1696851
11	0x3c173c33	0.009230661
12	0x3df8293d	0.121172406
13	0x3d160d02	0.0366335
14	0x3d68e0ea	0.05685512
15	0x3e073699	0.13204421
16	0x3e2ba4f3	0.16762142
17	0xbdf03da4	-0.11730507
18	0x3cb50f75	0.022102097
19	0x3e07161a	0.13192025
20	0x3e0322d7	0.12806259
21	0x3de0e946	0.109819934
22	0xbe0301a7	-0.12793599
23	0xbe025a25	-0.127297
24	0xbddaf31a	-0.10690899
25	0x3cb5edaa	0.022208054
26	0x3e346a2b	0.17618625
27	0xbde4b09a	-0.111664966
28	0x3dc0ec2b	0.094200455
29	0xbdc86213	-0.09784331
30	0xbe2a3245	-0.16620739
31	0xbd19e4f7	-0.037571874
32	0x3dd09859	0.10185308
33	0x3e280d8f	0.16411422
34	0xbde0d6c4	-0.10978463
35	0x3d1d21d2	0.03836233
36	0x3e1c3190	0.15253282
37	0x3defe7af	0.11714112
38	0x3de1a135	0.11017076
39	0x3e00a339	0.12562265
40	0x3de4fe87	0.1118136
41	0x3d3b068f	0.04566055
42	0xbdf7916e	-0.120882854
43	0xbe180303	-0.14844899
44	0xbda5e48b	-0.08100232
45	0xbca8a17e	-0.020584818
46	0xbddde94b	-0.10835513
47	0x3d8473d8	0.06467408
48	0x3d60178c	0.054709956
49	0xbd23f4b2	-0.04002828
50	0x3d8b2540	0.06794214
51	0x3d6a0273	0.057131242
52	0x3ddd09a0	0.107928514
53	0x3df3cfba	0.11904855
54	0xbd7535a5	-0.059865613
55	0x3e30dc12	0.1727145
56	0xbca76ac4	-0.020436652
57	0xbbc7029d	-0.0060733096
58	0xbe2adc15	-0.16685517
59	0xbde90346	-0.113775775
60	0xbdd380d1	-0.10327304
61	0xbd9ad9f9	-0.07561106
62	0x3e00b2d7	0.12568222
63	0xbd6c9d12	-0.05776698
64	0xbe07458c	-0.13210124
65	0x3d8b4b2c	0.06801447
66	0x3d67d38d	0.056598235
67	0x3dea7ce6	0.11449604
68	0xbdbb5810	-0.09147656
69	0x3d1cfd73	0.038327646
70	0xbd83ccbc	-0.06435534
71	0xbd22ae59	-0.039717052
72	0xbe1041c5	-0.14087589
73	0xbda50094	-0.08056751
74	0xbd5dc0cf	-0.054138955
75	0x3d9ad1da	0.07559557
76	0x3d0447d7	0.032295074
77	0x3d32dbac	0.043666527
78	0x3e34ace9	0.17644085
79	0x3e306cf0	0.17229056
80	0x3df6ed1b	0.12056943
81	0x3bb874e2	0.005629168
82	0xbdfa7439	-0.12229199
83	0x3e0d77b8	0.138152
84	0xbd351079	-0.044205163
85	0xbc6a26e8	-0.014291503
86	0xbe1bf27b	-0.15229218
87	0xbd0f0678	-0.03491828
88	0xbde98265	-0.11401824
89	0x3e2656c3	0.16244034
90	0xbe1c7e87	-0.15282641
91	0xbe0d19ca	-0.13779369
92	0xbbc4b1e1	-0.00600265
93	0xbdc3c249	-0.09558541
94	0x3d818a80	0.06325245
95	0xbd8b5b75	-0.068045534
96	0xbdaa0b51	-0.0830294
97	0x3c240a11	0.010012166
98	0x3e0309f3	0.12796764
99	0xbdfeaa52	-0.1243483
100	0x3daa03c8	0.083015025
101	0x3de89664	0.1135681
102	0x3e31125c	0.1729216
103	0xbdfd669a	-0.12373085
104	0x3d2f5d03	0.042813312
105	0xbe05d992	-0.13071278
106	0x3e1a8b66	0.15092239
107	0xbd8c6fb7	-0.068572454
108	0x3dda12ea	0.10648139
109	0x3bac742a	0.0052628713
110	0xbc619234	-0.013767768
111	0xbbb8d42a	-0.0056405263
112	0x3cf62d53	0.03005091
113	0x3daaa9aa	0.08333142
114	0x3ce840f4	0.028351285
115	0x3d5ce1db	0.05392633
116	0xbe22d49f	-0.15901421
117	0x3e03e0f3	0.1287878
118	0x3e1dd2cd	0.15412445
119	0x3e15a181	0.1461239
120	0x3e05d01b	0.13067667
121	0xbe02a0eb	-0.12756698
122	0xbd863502	-0.06553079
123	0x3e1f9bc9	0.15586771
124	0xbe09dfce	-0.13464281
125	0x3e243948	0.16037476
126	0xbe0e5eca	-0.13903347
127	0xbdff0597	-0.12452238
128	0x3db0fdea	0.0864218
129	0xbe020f4c	-0.12701148
130	0xbd25e2c4	-0.040499464
131	0x3e03b07f	0.12860297
132	0x3e0f61f7	0.14002214
133	0x3e2b3300	0.16718674
134	0xbd12ed5d	-0.0358709
135	0xbe0cb2d3	-0.13740091
136	0x3e323b94	0.1740554
137	0xbd1a3f24	-0.03765787
138	0xbd94f466	-0.07273178
139	0x3d30829d	0.043093313
140	0xbdfd2e66	-0.123623654
141	0x3dedf5ac	0.11619124
142	0x3de2e67d	0.110791184
143	0xbe0fa27d	-0.14026828
144	0xbe14aefc	-0.14519876
145	0xbc7db47e	-0.015484927
146	0x3d981090	0.07425034
147	0xbba7c409	-0.0051198048
148	0xbdb794ae	-0.08963905
149	0x3b846ec6	0.0040415255
150	0xbe2a2522	-0.16615728
151	0xbdffdfa0	-0.12493825
152	0xbdf1010b	-0.11767777
153	0x3e1512fc	0.14558023
154	0x3e1f919d	0.15582891
155	0xbd75f199	-0.06004486
156	0x3c01e65b	0.007928456
157	0x3da175e0	0.07883811
158	0x3cad8363	0.021180814
159	0xbdb54a78	-0.088520944
160	0x3dd0ccf0	0.10195339
161	0x3dde8e72	0.10867013
162	0xbc27db32	-0.010245131
163	0xbcb24549	-0.021761553
164	0x3e247fe7	0.16064416
165	0x3e1e3bc2	0.15452483
166	0xbdcd445b	-0.100228034
167	0x3e311b2f	0.17295526
168	0x3d333037	0.043747153
169	0xbdf07ca6	-0.11742525
170	0x3dc62efa	0.09676929
171	0xbe0724cd	-0.13197632
172	0x3e273f84	0.16332823
173	0xbde8bef6	-0.11364548
174	0x3d4cc9ce	0.049997143
175	0x3d5c7b09	0.053828273
176	0x3d2c3a07	0.042047527
177	0x3e162406	0.1466218
178	0xbd965f30	-0.07342374
179	0xbd98d759	-0.07462949
180	0xbe1cdd8b	-0.15318887
181	0xbbedb9e6	-0.007254827
182	0xbdab811a	-0.083742335
183	0x3be81ac5	0.0070832693
184	0xbd146f1c	-0.036238775
185	0x3d703e3a	0.058653094
186	0x3e1c9842	0.15292457
187	0x3d55a889	0.05216268
188	0xbd6940d5	-0.056946594
189	0xbdb1a66e	-0.08674322
190	0xbe1de032	-0.15417555
191	0x3e185140	0.14874744
192	0xbd092b2b	-0.033488434
193	0x3d12286f	0.03568309
194	0x3bd6463e	0.0065391352
195	0xbde6b6d4	-0.112653404
196	0x3dcbe476	0.09955685
197	0x3dcae469	0.09906847
198	0x3c11db78	0.008902423
199	0xbdcdbdd5	-0.10045973
200	0xbd99d4f5	-0.075113215
201	0x3b1f8a49	0.00243439
202	0xbdced85a	-0.100998595
203	0xbdca005f	-0.09863352
204	0xbcd80411	-0.026369127
205	0xbd507f50	-0.050902665
206	0x3d31bf06	0.043395065
207	0xbd3e51cd	-0.04646473
208	0xbcbff88f	-0.023433952
209	0xbd8a2ecc	-0.06747207
210	0xbe256cf4	-0.16154844
211	0x3e1ddefd	0.15417095
212	0x3d0a23f5	0.033725698
213	0x3e21df02	0.15807727
214	0xbce9628e	-0.028489377
215	0xbd35f812	-0.04442603
216	0xbe2a2d31	-0.16618802
217	0xbd896edc	-0.06710598
218	0x3ded69e3	0.11592462
219	0xbe314c36	-0.17314228
220	0xbd7d4186	-0.061830066
221	0x3ddc9306	0.1077023
222	0x3dd0a883	0.10188391
223	0x3d85ae2f	0.065273635
224	0xbd0f53ad	-0.03499191
225	0xbc5b4b7d	-0.013384697
226	0xbd0981ad	-0.033570934
227	0xbd85761f	-0.065166704
228	0x3d97163c	0.07377288
229	0xbd769f20	-0.060210347
230	0xbdcb62a1	-0.09930921
231	0x3d24437f	0.04010343
232	0xbe02d759	-0.12777461
233	0xbd1a872d	-0.03772657
234	0x3db9017a	0.09033485
235	0x3d874dc9	0.06606633
236	0x3e1a1b9e	0.15049598
237	0xbdf6ed18	-0.12056941
238	0x3ac97493	0.0015369825
239	0xbd55d22a	-0.05220238
240	0xbdca7e48	-0.098873675
241	0xbdcbaa44	-0.09944585
242	0x3d366b98	0.044536203
243	0x3c97830b	0.018495103
244	0xbdb8cd18	-0.090234935
245	0xbdff2f63	-0.1246021
246	0xbe15fa97	-0.14646374
247	0x3e3168e6	0.17325172
248	0xbcf6d483	-0.03013063
249	0xbd276e6f	-0.040876802
250	0xbd8520a1	-0.06500364
251	0xbdb51416	-0.08841722
252	0xbe258b27	-0.16166364
253	0xbdd48979	-0.10377783
254	0x3ddd4988	0.108050406
255	0x3d1eb30f	0.038744982

115 f4 [64]
0	0xbe1d4ec0	-0.15362072
1	0x3e10f064	0.14154202
2	0x3ba511e7	0.0050375345
3	0x3e2516f0	0.16122031
4	0x3da8e936	0.082476065
5	0x3d9aa98f	0.07551872
6	0x3d1cad65	0.0382513
7	0xbd234dff	-0.039869305
8	0xbdd42e99	-0.1036045
9	0x3cafdc83	0.021467453
10	0x3e2df29e	0.16987082
11	0x3dd90aed	0.10597787
12	0x3e2474bd	0.16060157
13	0x3e29c2ee	0.16578266
14	0x3e0d70d3	0.1381257
15	0xbdcb34ab	-0.09922155
16	0xbdc52a85	-0.096272506
17	0xbbc6b85e	-0.0060644588
18	0xbdbb3ceb	-0.091424786
19	0xbd44776a	-0.047965445
20	0xbd78083c	-0.060554728
21	0x3e1e663a	0.15468684
22	0xbc42c1ac	-0.011886995
23	0x3e2f38a6	0.17111453
24	0xbe0c5cc5	-0.13707264
25	0xbe328f1f	-0.17437409
26	0x3ccf0e18	0.025275275
27	0x3d104b84	0.035228267
28	0xbd9217a9	-0.07133419
29	0xbdb736ff	-0.089460365
30	0x3d4e3ac2	0.050349005
31	0x3c1118c0	0.0088559985
32	0xbcc20222	-0.023682658
33	0x3db7cb86	0.08974366
34	0xbd99f6c8	-0.07517773
35	0x3e0e640e	0.13905355
36	0xbdf6e622	-0.12055613
37	0xbdbc65c4	-0.09199098
38	0x3d7ac834	0.061226085
39	0x3dde7db8	0.10863823
40	0xbb0dd9a3	-0.0021644614
41	0xbe0e1941	-0.13876821
42	0xbbe766a2	-0.0070617953
43	0xbd7473b2	-0.05968065
44	0xbd675d77	-0.05648562
45	0xbd05d600	-0.03267479
46	0x3d2e3500	0.042531013
47	0xbd288bba	-0.04114888
48	0xbdfde283	-0.12396719
49	0xbdb4c372	-0.08826341
50	0xbe179f25	-0.14806803
51	0xbe34cf63	-0.17657237
52	0x3daef597	0.08542936
53	0x3dca497b	0.098772965
54	0x3e08cab6	0.13358578
55	0x3c65473a	0.0139940325
56	0xbd94e970	-0.07271087
57	0xbdd9be63	-0.106320165
58	0x3db451a5	0.08804635
59	0xbddacb2f	-0.106832854
60	0x3e074703	0.13210683
61	0xbdc45b16	-0.09587686
62	0xbe28de04	-0.16490942
63	0xbe025caa	-0.12730661

117 f4 [256, 256, 1]
0	0xbd4efa6e	-0.050531797
1	0xbbf00bd1	-0.0073256274
2	0x3d0fdc33	0.035122108
3	0x3d5176e9	0.051138792
4	0xbcc78613	-0.024355924
5	0x3d5e6ee1	0.05430496
6	0xbd200e6d	-0.039076257
7	0x3d76a029	0.060211334
8	0x3d4b87f3	0.0496902
9	0xbcacaec7	-0.021079434
10	0xbd0d8ab6	-0.034556113
11	0x3c876f6c	0.016532622
12	0x3d2bf1de	0.04197871
13	0x3b824ab5	0.003976191
14	0x3d6e9d66	0.058255576
15	0x3cba3db7	0.022734506
16	0xbc4a3886	-0.012342578
17	0xbd04416f	-0.032288965
18	0xbcdb6518	-0.026781604
19	0x3c211c43	0.009833398
20	0xbbd47a9a	-0.006484342
21	0xbc9fc1c4	-0.019501574
22	0x3d1600dd	0.036621917
23	0xbce32b81	-0.027730705
24	0x3c01c155	0.007919629
25	0xbc0d8aaa	-0.008639017
26	0xbd631cb3	-0.05544729
27	0x3d3069bc	0.043069586
28	0x3d7f7d80	0.062375546
29	0xbabae503	-0.0014258925
30	0xbd34b62b	-0.04411904
31	0xbd06191a	-0.032738782
32	0xbd58d28f	-0.05293518
33	0x3d71f869	0.059074793
34	0xbd0b9e0e	-0.03408628
35	0xbd6ba22b	-0.057527702
36	0xbbf69cff	-0.0075260396
37	0x3ccf6c1c	0.025320105
38	0xbcc4d583	-0.024027592
39	0x3d321006	0.043472312
40	0xbd459fd3	-0.048248123
41	0xbd2ba87e	-0.041908734
42	0xbcf337e4	-0.029689737
43	0xbd5bb9e4	-0.053644076
44	0x3d68b80a	0.05681614
45	0x3d16e330	0.036837757
46	0x3b834085	0.004005494
47	0x3cb35cb9	0.0218948
48	0xbd0f13bd	-0.034930933
49	0x3d3f1ddb	0.04665933
50	0x3ccf57ec	0.02531048
51	0xbce536fd	-0.027980322
52	0xbcf6c1fb	-0.030121794
53	0xbd3309ef	-0.043710645
54	0xbccb52c5	-0.024819741
55	0xbcb8e7ff	-0.022571562
56	0xbd3de2ce	-0.046358876
57	0x3cbe0632	0.023196314
58	0x3c98b8b2	0.018642757
59	0xbd2e23b3	-0.042514514
60	0xbd2b11e2	-0.0417651
61	0x3d0046d0	0.031317532
62	0x3cfeed94	0.031119145
63	0x3c8b420a	0.016999263
64	0x3c3ff871	0.011716948
65	0x3c250b0a	0.010073433
66	0x3d5f7f5d	0.054564822
67	0x3d49a0e0	0.049225688
68	0x3caaa184	0.02082897
69	0x3ca87181	0.020561935
70	0xbc8c0c2e	-0.017095651
71	0x3cf0eb81	0.029409172
72	0xbd5f478b	-0.054511588
73	0x3be84b44	0.0070890505
74	0xbc949cbb	-0.018141141
75	0xbd4d61e7	-0.050142195
76	0xbd50873a	-0.050910212
77	0x3d7fda22	0.062463887
78	0xbd3f490d	-0.046700526
79	0x388b9fd2	6.657805e-05
80	0x3d163d41	0.03667951
81	0xbd79d622	-0.06099523
82	0x3c7c0e3d	0.015384254
83	0x3ad614fa	0.0016333156
84	0xbd5606aa	-0.05225245
85	0x3d699af1	0.05703253
86	0xbc536da3	-0.012904557
87	0x3d36362e	0.044485264
88	0xbd580e25	-0.052747864
89	0xbcc985da	-0.024599958
90	0xbb946d5f	-0.0045296396
91	0xbc135348	-0.008992024
92	0xbb715ff1	-0.0036830867
93	0xbcd3c473	-0.02585051
94	0xbaef7071	-0.0018267763
95	0x3aef6471	0.0018264187
96	0x3d2ea3c5	0.04263665
97	0x3c84b000	0.016197205
98	0x3d4aaa38	0.04947874
99	0xbbc294a0	-0.0059381276
100	0x3c804f5a	0.015662838
101	0xbcb49c59	-0.022047209
102	0xbd058308	-0.032595664
103	0x3d095c1b	0.033535104
104	0xbb35f184	-0.0027762363
105	0xbb9252b0	-0.0044654235
106	0xbce3fd5d	-0.027830774
107	0xbc72d148	-0.014820404
108	0x3d561260	0.052263618
109	0x3c84d720	0.01621586
110	0xbd5cf679	-0.053945992
111	0xbd203bef	-0.039119657
112	0x3bcd554d	0.006266272
113	0xbd111262	-0.03541792
114	0xbd4cb269	-0.049974833
115	0x3d575487	0.052570846
116	0xbd543678	-0.051809758
117	0xbd63db81	-0.055629257
118	0x3d71508f	0.058914717
119	0x3d24c116	0.040223204
120	0xbd0c894c	-0.034310624
121	0x3cc2b4e4	0.023767896
122	0xbc855c4c	-0.016279362
123	0x3d392b9f	0.045207616
124	0xbc91e07c	-0.017807238
125	0xbd735928	-0.059411198
126	0xbc53f3b2	-0.012936519
127	0x3d213be5	0.03936376
128	0xbd0ad0c6	-0.033890508
129	0x3aa19a0b	0.0012329234
130	0x3c64f1b5	0.013973643
131	0xbc0fbb29	-0.00877265
132	0xbcd88771	-0.026431771
133	0xbd6a9b01	-0.05727673
134	0x3cef4849	0.029209273
135	0x3c5a3d80	0.013320327
136	0xbca8e329	-0.02061613
137	0xbcf4215c	-0.029801063
138	0xbd35bd6e	-0.044370107
139	0xbb4f3c3c	-0.0031621596
140	0xbc8c153e	-0.017099973
141	0xbcccbcbd	-0.024992341
142	0x3908f5d3	0.00013061547
143	0xbcf3e014	-0.029769935
144	0x3c6429ad	0.013925952
145	0x3ccdd54c	0.025126122
146	0xb8a493ca	-7.847657e-05
147	0x3cf0e78d	0.029407287
148	0x3d7b4000	0.061340332
149	0xbd630186	-0.055421375
150	0xbc5b1ab8	-0.013373069
151	0xbc9518f7	-0.01820038
152	0xbd2c9c95	-0.042141516
153	0x3d29559e	0.041341417
154	0x3cbf1821	0.023326935
155	0xbb56e3d9	-0.0032789616
156	0xbd14d16b	-0.03633253
157	0x3c32c955	0.010912259
158	0x3d3b0e85	0.045668144
159	0x3d1f143c	0.038837656
160	0x3cae0247	0.02124132
161	0xbc925078	-0.017860636
162	0xbcae7bd3	-0.021299278
163	0xbcfb7f09	-0.030700224
164	0xbd292da4	-0.041303292
165	0xbb692294	-0.0035573589
166	0xbcb1ba3e	-0.021695253
167	0x3d528879	0.05139968
168	0xbd386fef	-0.045028623
169	0xbd534c67	-0.051586535
170	0x3d6353b9	0.055499766
171	0xbd0bf706	-0.034171127
172	0x3d180e60	0.037123084
173	0x3cc687cb	0.024234673
174	0xbbea2583	-0.007145585
175	0x3d47e9c0	0.048806906
176	0x3b26a7c9	0.0025429598
177	0xbcee59fa	-0.029095639
178	0x3c342b55	0.010996659
179	0x3ceaf5e7	0.028681708
180	0x3d1b1969	0.03786603
181	0xbb0b29d2	-0.0021234644
182	0x3cea28f3	0.02858398
183	0x3d17b704	0.03703977
184	0xbc099d1b	-0.008399273
185	0xbcfc6325	-0.030808995
186	0xbd7ecf5e	-0.06220948
187	0x3d3dce32	0.04633922
188	0xbc7ba065	-0.015358065
189	0x3b201d4b	0.0024431522
190	0x3cbc199a	0.022961427
191	0x3bf1f681	0.007384122
192	0xbd79ea96	-0.061014734
193	0x3d11c578	0.03558871
194	0xbd41935e	-0.04725968
195	0x3d02eb0f	0.03196245
196	0x3cc30b50	0.023809105
197	0x3d41cbc8	0.04731348
198	0x3c61fbfe	0.01379299
199	0xbc64a8fd	-0.013956306
200	0xbcc4ad2f	-0.024008362
201	0xbd389ced	-0.04507153
202	0xbd37188e	-0.04470115
203	0xbd00397e	-0.03130483
204	0x3d682556	0.05667623
205	0xbba37e8a	-0.00498945
206	0x3c1e6894	0.009668488
207	0xbbec5242	-0.0072119543
208	0xbd07543c	-0.033039317
209	0x3d18bf30	0.037291706
210	0x3aee55f2	0.0018183573
211	0x3ce783bc	0.028261058
212	0xbd4baed7	-0.049727287
213	0x3c8a25bf	0.016863702
214	0x3d53a549	0.0516713
215	0xbc2cbb77	-0.010542742
216	0x3d0a0e69	0.03370515
217	0xbca7da29	-0.020489769
218	0xbd7a0a8a	-0.061045207
219	0xbd25ea7a	-0.040506817
220	0xbc9efbac	-0.019407116
221	0x3d58fa81	0.052973274
222	0x3d66cb8a	0.056346454
223	0x3c99b13a	0.018761266
224	0x3c294720	0.010331899
225	0xbb867104	-0.004102828
226	0xbd3d902c	-0.04628007
227	0x3a2ec8c7	0.00066674914
228	0x3d06e164	0.032929793
229	0xbd353ec3	-0.044249307
230	0x3d47388b	0.048637908
231	0x3c4b0ee5	0.012393688
232	0xbd18d0f6	-0.037308656
233	0xbd6ff797	-0.05858573
234	0xbc9b2ec1	-0.018943192
235	0xbd7ab4ac	-0.06120746
236	0x3c9ab649	0.018885748
237	0xbd0c185c	-0.03420292
238	0xbd7e857c	-0.06213902
239	0x3d70306d	0.058639932
240	0x3ce38a2d	0.027775848
241	0xbd00076e	-0.031257086
242	0x3d7b593e	0.061364405
243	0xbc32baa5	-0.010908757
244	0xbc4350e8	-0.011921145
245	0xbd4f91f8	-0.050676316
246	0x3d03c135	0.03216668
247	0xbcbedbd5	-0.023298183
248	0x3c5445d2	0.0129561
249	0xbb5d3d97	-0.0033758634
250	0x3caeb69b	0.021327307
251	0x3bb4f645	0.0055225217
252	0x3d21cb8f	0.03950077
253	0xbcc594e7	-0.024118854
254	0x3ce26236	0.027634721
255	0xbb9d8b7c	-0.0048078876

118 f4 [256]
0	0x3d674c62	0.05646933
1	0x3b843c25	0.00403549
2	0x3c19955e	0.009373991
3	0x3c260e5a	0.010135258
4	0xbcc5d707	-0.024150385
5	0xbd3e6960	-0.046487212
6	0xbd0b74b8	-0.03404686
7	0x3d0276ef	0.031851705
8	0x3d4b7fcf	0.049682435
9	0xbc6726dc	-0.014108386
10	0xbd661fda	-0.05618272
11	0x3d7cedab	0.061750095
12	0x3d4698cb	0.04848556
13	0xbc3a36eb	-0.0113656325
14	0x3cb00df6	0.021491032
15	0x3c70b639	0.014691883
16	0xbd3e36d2	-0.046439
17	0xbd2f1ee7	-0.04275408
18	0x3d1a8e45	0.037733335
19	0x3d1fb61a	0.038992025
20	0xbd3c9794	-0.046042994
21	0xbced19d6	-0.028942984
22	0x3d1c7b4b	0.03820352
23	0x3d773011	0.060348574
24	0x3d10816f	0.035279687
25	0x3d392533	0.04520149
26	0xbc442dc0	-0.011973798
27	0xbce52f7d	-0.027976746
28	0xbd17c06a	-0.037048735
29	0x3cc42d20	0.023947299
30	0xbd20a855	-0.039223034
31	0xbc684efc	-0.014178988
32	0x3d28877b	0.04114483
33	0x3ca46aa2	0.020070378
34	0xbd46f9ff	-0.04857826
35	0x3cf66a47	0.030079974
36	0x3cddd47b	0.027078858
37	0x3cb79730	0.022410959
38	0x3d3d355a	0.04619346
39	0x3d5485e0	0.051885486
40	0x3d40aa43	0.047037374
41	0xbd384a68	-0.044992834
42	0x3d1741f8	0.036928147
43	0xbcd05e38	-0.025435552
44	0x3d2063bb	0.03915761
45	0x3d45e251	0.048311535
46	0xbc6276f6	-0.013822308
47	0xbd3c31c0	-0.045945883
48	0x3c15913f	0.009128868
49	0x3cbe7aad	0.023251856
50	0x3d460931	0.04834861
51	0x3ca761f1	0.020432444
52	0xbd1b07ef	-0.037849363
53	0x3d3ea28d	0.04654174
54	0xbc23acaa	-0.009989897
55	0xbd07110a	-0.032975234
56	0x3d4d1733	0.050070953
57	0x3d56fb5b	0.052485805
58	0x3c425e10	0.011863247
59	0xbc2ba528	-0.010476388
60	0x3b611fb6	0.0034351177
61	0x3c8203dd	0.015870983
62	0xbd2e39eb	-0.042535704
63	0x399959ce	0.00029249344
64	0xbd168a9f	-0.036753293
65	0xbd573caf	-0.052548107
66	0xbd221887	-0.039574172
67	0xbc507cac	-0.012725037
68	0xbc20f063	-0.009822938
69	0xbd7f7f38	-0.062377185
70	0x3ab01046	0.0013432584
71	0x3c8c3cf2	0.017118905
72	0xbd274c23	-0.040844094
73	0xbb45fa3f	-0.0030208973
74	0xbb5d7c77	-0.003379611
75	0xbcadeb07	-0.021230234
76	0xbcd94b65	-0.026525209
77	0x3cb36415	0.021898309
78	0x3d2488b4	0.040169433
79	0xbd357054	-0.044296578
80	0xbd0b86fe	-0.034064285
81	0xbd3b68a7	-0.0457541
82	0x3c9f174c	0.019420289
83	0xbd2fcdd0	-0.042920887
84	0xbd25325a	-0.040331222
85	0x3bb03046	0.0053768484
86	0xbb3ee2a1	-0.002912678
87	0xbd46e79b	-0.04856072
88	0xbbafb036	-0.005361582
89	0x3d360002	0.0444336
90	0x3ce88e98	0.028388306
91	0x3aaf8a86	0.0013392724
92	0xbd2a0456	-0.04150804
93	0x3d3ce6ce	0.04611855
94	0x3cc293d4	0.02375213
95	0xbb416141	-0.002950743
96	0x3ced2f42	0.028953198
97	0x3bdd89c7	0.006760809
98	0x3cfaaf5a	0.030601192
99	0x3cf12ee9	0.029441314
100	0xbd0e2adb	-0.03470884
101	0x3d4d0bef	0.05006021
102	0x3d670ff4	0.0564117
103	0x3d4dbec6	0.050230764
104	0x3d31afa2	0.043380387
105	0x3d273643	0.040823232
106	0xbc64bbf5	-0.013960828
107	0xbd6b09bd	-0.057382334
108	0x3d3ec69d	0.04657613
109	0xbc9d7e68	-0.019225314
110	0xbc91e78c	-0.017810605
111	0x3d2eff19	0.04272375
112	0x3d1ccf59	0.03828368
113	0xbd48c566	-0.04901638
114	0xbd784d59	-0.06062064
115	0xbd52e687	-0.05148938
116	0xbce7a80c	-0.028278373
117	0x3c88bb87	0.016690983
118	0x3c170bb6	0.009219101
119	0xb7938fd0	-1.7590733e-05
120	0x3d1f767a	0.038931347
121	0x3d5eead3	0.054423165
122	0xbd117a66	-0.03551712
123	0xbd7288c0	-0.059212446
124	0x3d21b685	0.039480705
125	0xbcb04a6a	-0.021519858
126	0x3c1e2794	0.009652991
127	0x3cb10106	0.021606933
128	0xbc314356	-0.010819277
129	0x3b88d223	0.004175441
130	0xbbc43f20	-0.0059889704
131	0x3d41ace2	0.047284015
132	0x3d25cd4a	0.040478982
133	0xba4c2cbd	-0.0007788649
134	0xbc527843	-0.012846055
135	0x3cd63e42	0.026152734
136	0x3d6ead24	0.05827059
137	0x3d4f6d3c	0.050641283
138	0x3d038bf3	0.032115888
139	0x3d358ff2	0.04432673
140	0xbd2eb653	-0.042654347
141	0x3d2c08f2	0.04200072
142	0xbcc6cc9b	-0.024267485
143	0x3d0cdea0	0.034392
144	0xbaedb5f2	-0.0018135889
145	0xbcb39239	-0.02192031
146	0x3bdef867	0.006804514
147	0x3c4693af	0.012120171
148	0xbd7d1561	-0.061787967
149	0x3cd28e8f	0.025702743
150	0x3d069ada	0.03286252
151	0xbcd4284a	-0.025898118
152	0x3d51d9f5	0.05123325
153	0x3c7d3f5d	0.0154570015
154	0xbb940f1f	-0.004518404
155	0xbd1f3176	-0.03886553
156	0xbce7a9c0	-0.028279185
157	0xbc09b223	-0.0084042875
158	0xbccfd628	-0.025370672
159	0x3d43c650	0.047796547
160	0xbd50c1b6	-0.050965987
161	0xbd60fa66	-0.0549263
162	0x3d36a8e2	0.044594653
163	0x3ca32512	0.019915137
164	0x3d4a972a	0.049460568
165	0x3900e9d6	0.00012294142
166	0x3d315124	0.043290272
167	0x3b51c75b	0.0032009694
168	0x3c927274	0.017876841
169	0xba34ae45	-0.0006892423
170	0x3cefbe91	0.029265674
171	0x3cefdf71	0.02928135
172	0xbd420ae6	-0.047373675
173	0xbd2789c7	-0.04090288
174	0x3d299e76	0.041410886
175	0x3d679406	0.05653765
176	0x3c1d778c	0.009611022
177	0x3ccf7844	0.025325902
178	0x3d25e8ec	0.040505335
179	0xbc1ea214	-0.009682197
180	0x3d5f99e1	0.05459011
181	0xbd6f2c02	-0.05839158
182	0xbd181cf6	-0.037136994
183	0xbd5180f1	-0.05114836
184	0x3cbbca5a	0.022923637
185	0xbc7685ef	-0.015046581
186	0x3d3a67a7	0.045509007
187	0xbbec4a02	-0.007210971
188	0x3d5eed0f	0.054425295
189	0x3d0f8055	0.035034496
190	0x3cd656c2	0.026164416
191	0xbcf4f3a4	-0.029901333
192	0x3c97d962	0.018536273
193	0xbcefa6f1	-0.029254409
194	0x3d7a8e36	0.06117078
195	0xbd50ba56	-0.050958954
196	0x3b20460b	0.0024455811
197	0x3d377416	0.044788443
198	0x3b75ed6f	0.0037525555
199	0xbb59b559	-0.0033219664
200	0x3d3f629b	0.046724897
201	0x3d6aeb79	0.05735347
202	0x3d677976	0.05651232
203	0xbb0e10d1	-0.0021677504
204	0x3c8192f9	0.015817152
205	0xbcf98bba	-0.030462135
206	0x3d667daa	0.056272186
207	0x3cf7eed3	0.030265247
208	0x3d1534a1	0.036427144
209	0x3c82077d	0.015872711
210	0x3d5ff205	0.054674167
211	0xbd326b79	-0.043559525
212	0x3c2cf857	0.010557256
213	0xbcb67374	-0.02227185
214	0xbcd6c3ee	-0.026216473
215	0x3d55b66e	0.05217593
216	0xbb0b23d2	-0.0021231067
217	0x3c70ad41	0.014689744
218	0x3c94b4db	0.018152645
219	0xbd17d1d4	-0.037065342
220	0x3d4ac0e9	0.04950038
221	0x3c0b9172	0.008518564
222	0x3d5f07d5	0.05445083
223	0xbd5fac6f	-0.054607805
224	0xbd58925b	-0.05287395
225	0xbd571a89	-0.05251554
226	0x3d64d77f	0.055869576
227	0x3d7162a5	0.058931965
228	0x3d365816	0.0445176
229	0xbc96e0aa	-0.018417675
230	0x3cd1ea53	0.02562443
231	0xbc722659	-0.014779651
232	0xbcd9e071	-0.02659628
233	0x3d4dc2ce	0.05023461
234	0x3d13d833	0.036094856
235	0x3d10e96c	0.03537886
236	0x3c325825	0.010885273
237	0xbc870654	-0.01648251
238	0x3d282871	0.041054193
239	0x3caedd5f	0.021345792
240	0xbd67ea26	-0.056619786
241	0xbd11d470	-0.035602987
242	0x3d361902	0.044457443
243	0xbcad261f	-0.021136342
244	0xbcb3f08d	-0.02196529
245	0x3ccdc9cc	0.025120638
246	0x3d6bdc19	0.05758295
247	0x3cdc7aa4	0.026913948
248	0xbbcb418d	-0.0062028826
249	0x3ccf5f20	0.025313914
250	0x3cfce329	0.030870037
251	0xbd018036	-0.031616412
252	0x3d34c269	0.044130716
253	0xbca52e2e	-0.020163622
254	0xbcc02371	-0.0234544
255	0x3d389da3	0.04507221

gnn.layers.0.attn.merge.bias f4 [128]
0	0xbd8ad216	-0.06778352
1	0xbd2e39da	-0.04253564
2	0x3d1acfca	0.03779582
3	0xbc4bb7b0	-0.012433931
4	0xbd28183b	-0.041038733
5	0xbd8815bf	-0.06644773
6	0xbd5b847b	-0.05359314
7	0x3ce404f2	0.02783439
8	0x3d1b4221	0.037904862
9	0x3c3f164f	0.011663034
10	0xbce190c5	-0.027534852
11	0x3c964a2a	0.018345911
12	0x3d879a6e	0.06621252
13	0xbd3b7c68	-0.04577294
14	0xbd9b414b	-0.07580813
15	0x3c094784	0.008378867
16	0xbd800d11	-0.06252492
17	0x3cbdbe80	0.023162127
18	0x3dabc2ed	0.083867885
19	0x3d788ef8	0.06068322
20	0x3b2bb901	0.00262028
21	0x3da849a2	0.08217169
22	0xbd715878	-0.05892226
23	0x3c7b0cd9	0.015322887
24	0x3ba3ab2b	0.00499477
25	0xbda4f36b	-0.08054241
26	0x3d899274	0.06717387
27	0x3da88d4c	0.08230075
28	0xbd99660f	-0.07490169
29	0x3da790f1	0.08181942
30	0xbda7077e	-0.08155726
31	0x3cddb053	0.027061617
32	0xbb746474	-0.003729132
33	0x3d28faf2	0.041254945
34	0x3d679b28	0.056544453
35	0xbd8776f2	-0.06614484
36	0x3c7b7662	0.015348049
37	0xbd8ec56f	-0.06971251
38	0x3db4184c	0.08793697
39	0x3d82df6c	0.063902706
40	0xbdb22bdb	-0.08699771
41	0xbda29193	-0.07937922
42	0x3d801918	0.06254786
43	0xbcba6725	-0.022754261
44	0x3d6c4803	0.057685863
45	0x3c8dc1cd	0.017304325
46	0x3d0b9c80	0.034084797
47	0x3c645b4d	0.013937783
48	0x3cf572a8	0.029961899
49	0x3d913fb2	0.07092227
50	0x3d6d1417	0.057880487
51	0xbd8948a6	-0.0670331
52	0x3b8ad76e	0.004237107
53	0xbdaed131	-0.08535994
54	0x3b473704	0.0030397782
55	0xbcfd728c	-0.03093841
56	0xbd9653f0	-0.073402286
57	0xbc3ee5f6	-0.011651507
58	0x3bd0aae9	0.0063680303
59	0xbcc524ff	-0.024065493
60	0x3caea28f	0.021317748
61	0x3d0a8666	0.03381958
62	0x3db38f41	0.08767558
63	0x3ceee12e	0.029160108
64	0xbd010835	-0.031501967
65	0xbd458d7b	-0.04823063
66	0x3ca1f830	0.019771665
67	0xbd8439ed	-0.06456361
68	0xbd7da55c	-0.061925277
69	0x3c8eacbd	0.017416352
70	0xbcfbf89f	-0.0307582
71	0x3d750752	0.059821434
72	0xbd91872d	-0.07105861
73	0xbcf409f2	-0.029789899
74	0x3da0ce12	0.07851805
75	0xbd2faeeb	-0.042891424
76	0xbba90ee9	-0.005159248
77	0x3cbdabb2	0.02315316
78	0xbbbab5f1	-0.0056979586
79	0x3d2709d4	0.040780857
80	0x3d250fa4	0.04029812
81	0xbd8ee0be	-0.0697646
82	0x3d704349	0.058657918
83	0x3da1ceec	0.07900795
84	0x3cfdcf5b	0.030982664
85	0x3b9add88	0.0047261156
86	0x3d84e6e2	0.0648935
87	0xbaee1c7e	-0.001816645
88	0x3d9db94a	0.07701357
89	0xbbc97d95	-0.0061490037
90	0xbd24ddae	-0.040250473
91	0xbd1ffa11	-0.03905684
92	0xbbfb7dfc	-0.0076749306
93	0x3c54ce4a	0.012988636
94	0xbd7d6542	-0.061864145
95	0xbd5c6a04	-0.053812042
96	0xbd7cb404	-0.061695114
97	0x3d8253a0	0.063636065
98	0x3d9fbc51	0.077995904
99	0xbd8923aa	-0.066962555
100	0xbc78701a	-0.015163446
101	0x3d2ae9e9	0.04172698
102	0xbd9f029d	-0.0776417
103	0x3db3e0cb	0.0878311
104	0x3d9738f5	0.073839106
105	0x3cc802dc	0.024415426
106	0xbcb5a30e	-0.022172477
107	0xbd99e440	-0.07514238
108	0x3d084202	0.033266075
109	0x3d7b1226	0.061296605
110	0xbd76e6a6	-0.060278557
111	0xbd37d4ce	-0.04488068
112	0xbd352f93	-0.044234823
113	0x3c52b2ae	0.012859983
114	0x3db05ec0	0.08611822
115	0xbd902443	-0.070381664
116	0xbd96d61e	-0.07365058
117	0xbd9274e9	-0.07151205
118	0x3da212bd	0.0791373
119	0xbcc29505	-0.023752699
120	0xbd8d062d	-0.068859436
121	0x3c68dfb0	0.0142134875
122	0xbdacbe05	-0.08434681
123	0xbd82c248	-0.063847125
124	0x3cc129a2	0.023579422
125	0x3db46597	0.08808439
126	0x3c55c5a5	0.01304761
127	0x3bb733eb	0.005590906

gnn.layers.0.attn.merge.weight f4 [128, 128, 1]
0	0x3d0099cc	0.031396672
1	0xbcfdfabc	-0.031003349
2	0xbd66e00d	-0.056366015
3	0xbd12bbf4	-0.035823777
4	0x3d9d616b	0.07684597
5	0x3d407955	0.04699071
6	0xbda6248a	-0.08112438
7	0x3d9fe192	0.07806696
8	0xbd892c81	-0.066979416
9	0x3d73e04a	0.05954007
10	0x3c397f9c	0.011321928
11	0xbcd02a21	-0.025410714
12	0xbac73f80	-0.001520142
13	0xbd50c088	-0.050964862
14	0x3da33eab	0.07970937
15	0xbd0b86bf	-0.03406405
16	0xbcde10c1	-0.027107598
17	0xbd90d144	-0.07071164
18	0x3d6b5911	0.057457987
19	0x3d9190d2	0.071077004
20	0x3c6914e5	0.014226173
21	0xbc72ee5a	-0.014827335
22	0x3ce8d3e8	0.028421357
23	0xbd21024b	-0.039308827
24	0x3db2d72b	0.08732446
25	0xbcdea605	-0.027178774
26	0x3d01f480	0.031727314
27	0x3d94ff4b	0.07275256
28	0xbcc171c8	-0.023613825
29	0x3d8d83bd	0.06909893
30	0x3d4c8928	0.04993549
31	0xbad5238a	-0.0016261202
32	0xbd03bf8e	-0.032165103
33	0x3d88421d	0.06653235
34	0x3cf92349	0.030412333
35	0x3bc742dc	0.0060809683
36	0xbce703bd	-0.028200025
37	0xbda9ac0b	-0.08284768
38	0xbd9b8926	-0.07594518
39	0xb9c212bc	-0.00037016522
40	0xbda5c203	-0.080936454
41	0xbdaf5cd8	-0.085626304
42	0xbcb95f5f	-0.022628484
43	0xbc033bed	-0.008009893
44	0x3d87c0e1	0.066285856
45	0xbd6c6f4a	-0.05772332
46	0xbdaf5204	-0.08560565
47	0x39b2f573	0.0003413368
48	0xbda7a451	-0.08185638
49	0xbc058958	-0.008150421
50	0x3d82819b	0.063723765
51	0xbd95dcc8	-0.07317501
52	0x3ca6d3b4	0.02036462
53	0xbcc2014d	-0.02368226
54	0x3db4ccec	0.08828148
55	0x3b0fbc12	0.0021932167
56	0xbc16e4cd	-0.009209824
57	0xbca2aac1	-0.019856812
58	0xbd30f986	-0.043206714
59	0x3d82359f	0.06357884
60	0xbd3a6435	-0.04550572
61	0x3da574b3	0.08078899
62	0x3d72df0c	0.059294745
63	0xbd98f28c	-0.07468137
64	0x3d8dc781	0.06922818
65	0xbad1a786	-0.001599536
66	0x3d5f53ae	0.054523163
67	0xbd2aab4c	-0.041667268
68	0x3c7b892a	0.015352527
69	0x3b375280	0.0027972758
70	0x3bba6188	0.005687896
71	0xbc847860	-0.01617068
72	0xbc14ed4c	-0.009089779
73	0xbd3a1a0f	-0.045435008
74	0x3d8a56d7	0.06754845
75	0x3d2641a1	0.040589932
76	0xbd2bc4c0	-0.041935682
77	0xbc4df36d	-0.012570244
78	0xbd9ac5d0	-0.07557261
79	0xbcd37741	-0.0258137
80	0x3c647dc6	0.013946002
81	0x3dae8da9	0.08523113
82	0xbdb1e8d6	-0.08686988
83	0xbca29448	-0.019846097
84	0xbd7ba5f2	-0.061437555
85	0x3d7a6431	0.061130706
86	0xbda821a6	-0.08209543
87	0x3ca8db3a	0.020612348
88	0x3ca56e59	0.02019422
89	0x3d46b7cb	0.048515122
90	0x3c967f44	0.018371232
91	0x3c424688	0.011857636
92	0x3db002c5	0.08594278
93	0xbc6a99fb	-0.014318938
94	0x3d87f406	0.06638341
95	0x3d41a7b8	0.04727909
96	0xbcaff6a2	-0.021479908
97	0xbcafedc6	-0.021475684
98	0x3d357ac8	0.044306546
99	0xbd199efb	-0.03750513
100	0x3c536dc1	0.012904585
101	0xbd8ada0b	-0.0677987
102	0x3d722eab	0.059126537
103	0xbd8ccc06	-0.06874852
104	0x3cb4d850	0.022075802
105	0xbd9e6ec4	-0.077359706
106	0x3ca1a6c8	0.019732848
107	0xbc68dd6f	-0.01421295
108	0xbd34bd66	-0.044125937
109	0xbc78927c	-0.015171643
110	0x3c86c576	0.016451579
111	0xbc20d3b0	-0.009816095
112	0x3d87a662	0.06623532
113	0xbd978bd1	-0.07399715
114	0x3d76eeaf	0.06028622
115	0xbd8a48c9	-0.06752164
116	0xbd187d63	-0.037228953
117	0xbb947b0e	-0.004531271
118	0xbd56d37c	-0.05244778
119	0x3d277ee3	0.040892493
120	0x3dad6850	0.08467162
121	0xbcedb810	-0.029018432
122	0xbc876e49	-0.01653208
123	0x3c6ed074	0.014576066
124	0x3d90b210	0.07065213
125	0x3db492b1	0.08817042
126	0x3cd53ba6	0.02602942
127	0x3cb3d11d	0.021950299
128	0x3daccf79	0.0843801
129	0xbd4116e8	-0.047140986
130	0x3d593702	0.053030975
131	0xbd4fc8a3	-0.05072845
132	0x3cce2ee4	0.025168844
133	0xbdb2a4b3	-0.0872282
134	0xbc3bc52a	-0.011460582
135	0x3da3e642	0.080029026
136	0x3da8915f	0.08230852
137	0xbc91ecd4	-0.017813124
138	0xbd2ee460	-0.042698264
139	0xbc19a0d6	-0.009376725
140	0x3d6c9b0b	0.057765048
141	0x3cb6e98a	0.022328157
142	0xbcf86f10	-0.030326396
143	0xbd1dcd5a	-0.038525917
144	0x3d6cb3b1	0.057788555
145	0xbd6eefc9	-0.058334146
146	0xbd109871	-0.03530163
147	0xbc5a75b1	-0.013333724
148	0x3da93bb2	0.08263339
149	0x3d8b0e16	0.06789796
150	0x3d8912cc	0.06693038
151	0xbd751c72	-0.05984158
152	0x3cf9c662	0.030490104
153	0xbbc717e7	-0.0060758474
154	0x3d33ef82	0.043929584
155	0x3d6f7cc1	0.058468584
156	0xbd8da337	-0.069158964
157	0xbd924a2e	-0.07143055
158	0x3c25e223	0.010124716
159	0xbdb2aab4	-0.08723965
160	0x3d828c7c	0.063744515
161	0xbd8309cd	-0.06398354
162	0xbd526444	-0.051365152
163	0x39cefbc1	0.00039478953
164	0x3d4e5639	0.050375197
165	0x3d9e0c40	0.0771718
166	0x3c85b222	0.016320292
167	0x3d9a6b5a	0.07540007
168	0x3d186983	0.03721
169	0x3db195d0	0.086711526
170	0xbcb276f1	-0.021785231
171	0xbcb7ee81	-0.022452595
172	0xbce00163	-0.027344411
173	0xbc75f168	-0.015011169
174	0xbd991c93	-0.07476153
175	0x3cd8687d	0.026417011
176	0x3d81d895	0.06340138
177	0x3d3a9ad4	0.04555781
178	0xbd646f9c	-0.0557705
179	0x3da41205	0.080112495
180	0xb96cabbd	-0.00022570691
181	0xbb2f1adb	-0.0026718888
182	0xbd9d0656	-0.07667224
183	0xbd1e6855	-0.038673718
184	0x3ce9e2d1	0.028550537
185	0x3c2fa310	0.0107200295
186	0xbd676bb1	-0.056499187
187	0x3da7e812	0.08198561
188	0x3d17a26d	0.037020136
189	0x3d47e7fb	0.04880522
190	0xbd529a08	-0.051416427
191	0xbd122eff	-0.03568935
192	0x3ce26ef5	0.027640799
193	0xbda9d74b	-0.08293017
194	0x3d298a80	0.04139185
195	0x3b95632a	0.0045589404
196	0x3d67652a	0.056492962
197	0x3d8ae9e6	0.06782894
198	0x3c8f1b83	0.017469173
199	0x3d3cdc4e	0.046108536
200	0x3b06b922	0.0020557125
201	0x3db09578	0.08622259
202	0xbc20b855	-0.009809573
203	0xbd5f105d	-0.054458965
204	0xbc41a61b	-0.011819388
205	0xbd8865b9	-0.06660027
206	0xbd540269	-0.05176011
207	0x3c9e1f14	0.019301929
208	0x3d8bd8d1	0.06828464
209	0x3d937e6b	0.07201847
210	0x3d885c6e	0.066582546
211	0x3d9aa351	0.075506814
212	0x3da1a7e5	0.078933515
213	0xbd59c38f	-0.053165015
214	0xbcdd1cef	-0.026991336
215	0x3d24c436	0.040226184
216	0xbd0e36f9	-0.034720395
217	0xbc770dcc	-0.015078973
218	0x3d9919eb	0.074756466
219	0xbbfc62ff	-0.007702231
220	0xbca813fa	-0.020517338
221	0x3d14dafd	0.036341656
222	0x3db11948	0.086474
223	0xbd1c08bd	-0.03809427
224	0xbc3d6666	-0.011560058
225	0xbda10c3b	-0.07863661
226	0x3c2b38d7	0.010450563
227	0x3c15761f	0.009122401
228	0x3d73239b	0.059360128
229	0xbd93e3fd	-0.0722122
230	0xbd604a84	-0.054758564
231	0x3d8ce051	0.068787225
232	0xbd232a2e	-0.039835148
233	0x3bbebe0e	0.005820996
234	0x3d9bb763	0.076033376
235	0x3d9d3530	0.0767616
236	0xbbb5654b	-0.0055357567
237	0xbdab1c94	-0.0835506
238	0xbd948a72	-0.07252969
239	0xbdadcffe	-0.08486937
240	0xbbad77cf	-0.0052938233
241	0xbd8cc919	-0.06874294
242	0x3d92cdd7	0.07168167
243	0xbd9d2245	-0.07672552
244	0xbcd6fb61	-0.026242914
245	0x3d1b1efc	0.037871346
246	0xbd18bcf6	-0.037289582
247	0x3d8786b9	0.06617493
248	0x3c9af396	0.018914979
249	0x3daddf1b	0.084898196
250	0x3c4e755c	0.012601223
251	0x3d5d1fc9	0.05398539
252	0xbd9f9d9d	-0.07793734
253	0xbd19db92	-0.037562914
254	0x3d21eb19	0.039530847
255	0xbd09a2b9	-0.03360245

gnn.layers.0.attn.proj.0.bias f4 [128]
0	0xbd8ad216	-0.06778352
1	0xbd2e39da	-0.04253564
2	0x3d1acfca	0.03779582
3	0xbc4bb7b0	-0.012433931
4	0xbd28183b	-0.041038733
5	0xbd8815bf	-0.06644773
6	0xbd5b847b	-0.05359314
7	0x3ce404f2	0.02783439
8	0x3d1b4221	0.037904862
9	0x3c3f164f	0.011663034
10	0xbce190c5	-0.027534852
11	0x3c964a2a	0.018345911
12	0x3d879a6e	0.06621252
13	0xbd3b7c68	-0.04577294
14	0xbd9b414b	-0.07580813
15	0x3c094784	0.008378867
16	0xbd800d11	-0.06252492
17	0x3cbdbe80	0.023162127
18	0x3dabc2ed	0.083867885
19	0x3d788ef8	0.06068322
20	0x3b2bb901	0.00262028
21	0x3da849a2	0.08217169
22	0xbd715878	-0.05892226
23	0x3c7b0cd9	0.015322887
24	0x3ba3ab2b	0.00499477
25	0xbda4f36b	-0.08054241
26	0x3d899274	0.06717387
27	0x3da88d4c	0.08230075
28	0xbd99660f	-0.07490169
29	0x3da790f1	0.08181942
30	0xbda7077e	-0.08155726
31	0x3cddb053	0.027061617
32	0xbb746474	-0.003729132
33	0x3d28faf2	0.041254945
34	0x3d679b28	0.056544453
35	0xbd8776f2	-0.06614484
36	0x3c7b7662	0.015348049
37	0xbd8ec56f	-0.06971251
38	0x3db4184c	0.08793697
39	0x3d82df6c	0.063902706
40	0xbdb22bdb	-0.08699771
41	0xbda29193	-0.07937922
42	0x3d801918	0.06254786
43	0xbcba6725	-0.022754261
44	0x3d6c4803	0.057685863
45	0x3c8dc1cd	0.017304325
46	0x3d0b9c80	0.034084797
47	0x3c645b4d	0.013937783
48	0x3cf572a8	0.029961899
49	0x3d913fb2	0.07092227
50	0x3d6d1417	0.057880487
51	0xbd8948a6	-0.0670331
52	0x3b8ad76e	0.004237107
53	0xbdaed131	-0.08535994
54	0x3b473704	0.0030397782
55	0xbcfd728c	-0.03093841
56	0xbd9653f0	-0.073402286
57	0xbc3ee5f6	-0.011651507
58	0x3bd0aae9	0.0063680303
59	0xbcc524ff	-0.024065493
60	0x3caea28f	0.021317748
61	0x3d0a8666	0.03381958
62	0x3db38f41	0.08767558
63	0x3ceee12e	0.029160108
64	0xbd010835	-0.031501967
65	0xbd458d7b	-0.04823063
66	0x3ca1f830	0.019771665
67	0xbd8439ed	-0.06456361
68	0xbd7da55c	-0.061925277
69	0x3c8eacbd	0.017416352
70	0xbcfbf89f	-0.0307582
71	0x3d750752	0.059821434
72	0xbd91872d	-0.07105861
73	0xbcf409f2	-0.029789899
74	0x3da0ce12	0.07851805
75	0xbd2faeeb	-0.042891424
76	0xbba90ee9	-0.005159248
77	0x3cbdabb2	0.02315316
78	0xbbbab5f1	-0.0056979586
79	0x3d2709d4	0.040780857
80	0x3d250fa4	0.04029812
81	0xbd8ee0be	-0.0697646
82	0x3d704349	0.058657918
83	0x3da1ceec	0.07900795
84	0x3cfdcf5b	0.030982664
85	0x3b9add88	0.0047261156
86	0x3d84e6e2	0.0648935
87	0xbaee1c7e	-0.001816645
88	0x3d9db94a	0.07701357
89	0xbbc97d95	-0.0061490037
90	0xbd24ddae	-0.040250473
91	0xbd1ffa11	-0.03905684
92	0xbbfb7dfc	-0.0076749306
93	0x3c54ce4a	0.012988636
94	0xbd7d6542	-0.061864145
95	0xbd5c6a04	-0.053812042
96	0xbd7cb404	-0.061695114
97	0x3d8253a0	0.063636065
98	0x3d9fbc51	0.077995904
99	0xbd8923aa	-0.066962555
100	0xbc78701a	-0.015163446
101	0x3d2ae9e9	0.04172698
102	0xbd9f029d	-0.0776417
103	0x3db3e0cb	0.0878311
104	0x3d9738f5	0.073839106
105	0x3cc802dc	0.024415426
106	0xbcb5a30e	-0.022172477
107	0xbd99e440	-0.07514238
108	0x3d084202	0.033266075
109	0x3d7b1226	0.061296605
110	0xbd76e6a6	-0.060278557
111	0xbd37d4ce	-0.04488068
112	0xbd352f93	-0.044234823
113	0x3c52b2ae	0.012859983
114	0x3db05ec0	0.08611822
115	0xbd902443	-0.070381664
116	0xbd96d61e	-0.07365058
117	0xbd9274e9	-0.07151205
118	0x3da212bd	0.0791373
119	0xbcc29505	-0.023752699
120	0xbd8d062d	-0.068859436
121	0x3c68dfb0	0.0142134875
122	0xbdacbe05	-0.08434681
123	0xbd82c248	-0.063847125
124	0x3cc129a2	0.023579422
125	0x3db46597	0.08808439
126	0x3c55c5a5	0.01304761
127	0x3bb733eb	0.005590906

gnn.layers.0.attn.proj.0.weight f4 [128, 128, 1]
0	0x3d0099cc	0.031396672
1	0xbcfdfabc	-0.031003349
2	0xbd66e00d	-0.056366015
3	0xbd12bbf4	-0.035823777
4	0x3d9d616b	0.07684597
5	0x3d407955	0.04699071
6	0xbda6248a	-0.08112438
7	0x3d9fe192	0.07806696
8	0xbd892c81	-0.066979416
9	0x3d73e04a	0.05954007
10	0x3c397f9c	0.011321928
11	0xbcd02a21	-0.025410714
12	0xbac73f80	-0.001520142
13	0xbd50c088	-0.050964862
14	0x3da33eab	0.07970937
15	0xbd0b86bf	-0.03406405
16	0xbcde10c1	-0.027107598
17	0xbd90d144	-0.07071164
18	0x3d6b5911	0.057457987
19	0x3d9190d2	0.071077004
20	0x3c6914e5	0.014226173
21	0xbc72ee5a	-0.014827335
22	0x3ce8d3e8	0.028421357
23	0xbd21024b	-0.039308827
24	0x3db2d72b	0.08732446
25	0xbcdea605	-0.027178774
26	0x3d01f480	0.031727314
27	0x3d94ff4b	0.07275256
28	0xbcc171c8	-0.023613825
29	0x3d8d83bd	0.06909893
30	0x3d4c8928	0.04993549
31	0xbad5238a	-0.0016261202
32	0xbd03bf8e	-0.032165103
33	0x3d88421d	0.06653235
34	0x3cf92349	0.030412333
35	0x3bc742dc	0.0060809683
36	0xbce703bd	-0.028200025
37	0xbda9ac0b	-0.08284768
38	0xbd9b8926	-0.07594518
39	0xb9c212bc	-0.00037016522
40	0xbda5c203	-0.080936454
41	0xbdaf5cd8	-0.085626304
42	0xbcb95f5f	-0.022628484
43	0xbc033bed	-0.008009893
44	0x3d87c0e1	0.066285856
45	0xbd6c6f4a	-0.05772332
46	0xbdaf5204	-0.08560565
47	0x39b2f573	0.0003413368
48	0xbda7a451	-0.08185638
49	0xbc058958	-0.008150421
50	0x3d82819b	0.063723765
51	0xbd95dcc8	-0.07317501
52	0x3ca6d3b4	0.02036462
53	0xbcc2014d	-0.02368226
54	0x3db4ccec	0.08828148
55	0x3b0fbc12	0.0021932167
56	0xbc16e4cd	-0.009209824
57	0xbca2aac1	-0.019856812
58	0xbd30f986	-0.043206714
59	0x3d82359f	0.06357884
60	0xbd3a6435	-0.04550572
61	0x3da574b3	0.08078899
62	0x3d72df0c	0.059294745
63	0xbd98f28c	-0.07468137
64	0x3d8dc781	0.06922818
65	0xbad1a786	-0.001599536
66	0x3d5f53ae	0.054523163
67	0xbd2aab4c	-0.041667268
68	0x3c7b892a	0.015352527
69	0x3b375280	0.0027972758
70	0x3bba6188	0.005687896
71	0xbc847860	-0.01617068
72	0xbc14ed4c	-0.009089779
73	0xbd3a1a0f	-0.045435008
74	0x3d8a56d7	0.06754845
75	0x3d2641a1	0.040589932
76	0xbd2bc4c0	-0.041935682
77	0xbc4df36d	-0.012570244
78	0xbd9ac5d0	-0.07557261
79	0xbcd37741	-0.0258137
80	0x3c647dc6	0.013946002
81	0x3dae8da9	0.08523113
82	0xbdb1e8d6	-0.08686988
83	0xbca29448	-0.019846097
84	0xbd7ba5f2	-0.061437555
85	0x3d7a6431	0.061130706
86	0xbda821a6	-0.08209543
87	0x3ca8db3a	0.020612348
88	0x3ca56e59	0.02019422
89	0x3d46b7cb	0.048515122
90	0x3c967f44	0.018371232
91	0x3c424688	0.011857636
92	0x3db002c5	0.08594278
93	0xbc6a99fb	-0.014318938
94	0x3d87f406	0.06638341
95	0x3d41a7b8	0.04727909
96	0xbcaff6a2	-0.021479908
97	0xbcafedc6	-0.021475684
98	0x3d357ac8	0.044306546
99	0xbd199efb	-0.03750513
100	0x3c536dc1	0.012904585
101	0xbd8ada0b	-0.0677987
102	0x3d722eab	0.059126537
103	0xbd8ccc06	-0.06874852
104	0x3cb4d850	0.022075802
105	0xbd9e6ec4	-0.077359706
106	0x3ca1a6c8	0.019732848
107	0xbc68dd6f	-0.01421295
108	0xbd34bd66	-0.044125937
109	0xbc78927c	-0.015171643
110	0x3c86c576	0.016451579
111	0xbc20d3b0	-0.009816095
112	0x3d87a662	0.06623532
113	0xbd978bd1	-0.07399715
114	0x3d76eeaf	0.06028622
115	0xbd8a48c9	-0.06752164
116	0xbd187d63	-0.037228953
117	0xbb947b0e	-0.004531271
118	0xbd56d37c	-0.05244778
119	0x3d277ee3	0.040892493
120	0x3dad6850	0.08467162
121	0xbcedb810	-0.029018432
122	0xbc876e49	-0.01653208
123	0x3c6ed074	0.014576066
124	0x3d90b210	0.07065213
125	0x3db492b1	0.08817042
126	0x3cd53ba6	0.02602942
127	0x3cb3d11d	0.021950299
128	0x3daccf79	0.0843801
129	0xbd4116e8	-0.047140986
130	0x3d593702	0.053030975
131	0xbd4fc8a3	-0.05072845
132	0x3cce2ee4	0.025168844
133	0xbdb2a4b3	-0.0872282
134	0xbc3bc52a	-0.011460582
135	0x3da3e642	0.080029026
136	0x3da8915f	0.08230852
137	0xbc91ecd4	-0.017813124
138	0xbd2ee460	-0.042698264
139	0xbc19a0d6	-0.009376725
140	0x3d6c9b0b	0.057765048
141	0x3cb6e98a	0.022328157
142	0xbcf86f10	-0.030326396
143	0xbd1dcd5a	-0.038525917
144	0x3d6cb3b1	0.057788555
145	0xbd6eefc9	-0.058334146
146	0xbd109871	-0.03530163
147	0xbc5a75b1	-0.013333724
148	0x3da93bb2	0.08263339
149	0x3d8b0e16	0.06789796
150	0x3d8912cc	0.06693038
151	0xbd751c72	-0.05984158
152	0x3cf9c662	0.030490104
153	0xbbc717e7	-0.0060758474
154	0x3d33ef82	0.043929584
155	0x3d6f7cc1	0.058468584
156	0xbd8da337	-0.069158964
157	0xbd924a2e	-0.07143055
158	0x3c25e223	0.010124716
159	0xbdb2aab4	-0.08723965
160	0x3d828c7c	0.063744515
161	0xbd8309cd	-0.06398354
162	0xbd526444	-0.051365152
163	0x39cefbc1	0.00039478953
164	0x3d4e5639	0.050375197
165	0x3d9e0c40	0.0771718
166	0x3c85b222	0.016320292
167	0x3d9a6b5a	0.07540007
168	0x3d186983	0.03721
169	0x3db195d0	0.086711526
170	0xbcb276f1	-0.021785231
171	0xbcb7ee81	-0.022452595
172	0xbce00163	-0.027344411
173	0xbc75f168	-0.015011169
174	0xbd991c93	-0.07476153
175	0x3cd8687d	0.026417011
176	0x3d81d895	0.06340138
177	0x3d3a9ad4	0.04555781
178	0xbd646f9c	-0.0557705
179	0x3da41205	0.080112495
180	0xb96cabbd	-0.00022570691
181	0xbb2f1adb	-0.0026718888
182	0xbd9d0656	-0.07667224
183	0xbd1e6855	-0.038673718
184	0x3ce9e2d1	0.028550537
185	0x3c2fa310	0.0107200295
186	0xbd676bb1	-0.056499187
187	0x3da7e812	0.08198561
188	0x3d17a26d	0.037020136
189	0x3d47e7fb	0.04880522
190	0xbd529a08	-0.051416427
191	0xbd122eff	-0.03568935
192	0x3ce26ef5	0.027640799
193	0xbda9d74b	-0.08293017
194	0x3d298a80	0.04139185
195	0x3b95632a	0.0045589404
196	0x3d67652a	0.056492962
197	0x3d8ae9e6	0.06782894
198	0x3c8f1b83	0.017469173
199	0x3d3cdc4e	0.046108536
200	0x3b06b922	0.0020557125
201	0x3db09578	0.08622259
202	0xbc20b855	-0.009809573
203	0xbd5f105d	-0.054458965
204	0xbc41a61b	-0.011819388
205	0xbd8865b9	-0.06660027
206	0xbd540269	-0.05176011
207	0x3c9e1f14	0.019301929
208	0x3d8bd8d1	0.06828464
209	0x3d937e6b	0.07201847
210	0x3d885c6e	0.066582546
211	0x3d9aa351	0.075506814
212	0x3da1a7e5	0.078933515
213	0xbd59c38f	-0.053165015
214	0xbcdd1cef	-0.026991336
215	0x3d24c436	0.040226184
216	0xbd0e36f9	-0.034720395
217	0xbc770dcc	-0.015078973
218	0x3d9919eb	0.074756466
219	0xbbfc62ff	-0.007702231
220	0xbca813fa	-0.020517338
221	0x3d14dafd	0.036341656
222	0x3db11948	0.086474
223	0xbd1c08bd	-0.03809427
224	0xbc3d6666	-0.011560058
225	0xbda10c3b	-0.07863661
226	0x3c2b38d7	0.010450563
227	0x3c15761f	0.009122401
228	0x3d73239b	0.059360128
229	0xbd93e3fd	-0.0722122
230	0xbd604a84	-0.054758564
231	0x3d8ce051	0.068787225
232	0xbd232a2e	-0.039835148
233	0x3bbebe0e	0.005820996
234	0x3d9bb763	0.076033376
235	0x3d9d3530	0.0767616
236	0xbbb5654b	-0.0055357567
237	0xbdab1c94	-0.0835506
238	0xbd948a72	-0.07252969
239	0xbdadcffe	-0.08486937
240	0xbbad77cf	-0.0052938233
241	0xbd8cc919	-0.06874294
242	0x3d92cdd7	0.07168167
243	0xbd9d2245	-0.07672552
244	0xbcd6fb61	-0.026242914
245	0x3d1b1efc	0.037871346
246	0xbd18bcf6	-0.037289582
247	0x3d8786b9	0.06617493
248	0x3c9af396	0.018914979
249	0x3daddf1b	0.084898196
250	0x3c4e755c	0.012601223
251	0x3d5d1fc9	0.05398539
252	0xbd9f9d9d	-0.07793734
253	0xbd19db92	-0.037562914
254	0x3d21eb19	0.039530847
255	0xbd09a2b9	-0.03360245

gnn.layers.0.attn.proj.1.bias f4 [128]
0	0xbd8ad216	-0.06778352
1	0xbd2e39da	-0.04253564
2	0x3d1acfca	0.03779582
3	0xbc4bb7b0	-0.012433931
4	0xbd28183b	-0.041038733
5	0xbd8815bf	-0.06644773
6	0xbd5b847b	-0.05359314
7	0x3ce404f2	0.02783439
8	0x3d1b4221	0.037904862
9	0x3c3f164f	0.011663034
10	0xbce190c5	-0.027534852
11	0x3c964a2a	0.018345911
12	0x3d879a6e	0.06621252
13	0xbd3b7c68	-0.04577294
14	0xbd9b414b	-0.07580813
15	0x3c094784	0.008378867
16	0xbd800d11	-0.06252492
17	0x3cbdbe80	0.023162127
18	0x3dabc2ed	0.083867885
19	0x3d788ef8	0.06068322
20	0x3b2bb901	0.00262028
21	0x3da849a2	0.08217169
22	0xbd715878	-0.05892226
23	0x3c7b0cd9	0.015322887
24	0x3ba3ab2b	0.00499477
25	0xbda4f36b	-0.08054241
26	0x3d899274	0.06717387
27	0x3da88d4c	0.08230075
28	0xbd99660f	-0.07490169
29	0x3da790f1	0.08181942
30	0xbda7077e	-0.08155726
31	0x3cddb053	0.027061617
32	0xbb746474	-0.003729132
33	0x3d28faf2	0.041254945
34	0x3d679b28	0.056544453
35	0xbd8776f2	-0.06614484
36	0x3c7b7662	0.015348049
37	0xbd8ec56f	-0.06971251
38	0x3db4184c	0.08793697
39	0x3d82df6c	0.063902706
40	0xbdb22bdb	-0.08699771
41	0xbda29193	-0.07937922
42	0x3d801918	0.06254786
43	0xbcba6725	-0.022754261
44	0x3d6c4803	0.057685863
45	0x3c8dc1cd	0.017304325
46	0x3d0b9c80	0.034084797
47	0x3c645b4d	0.013937783
48	0x3cf572a8	0.029961899
49	0x3d913fb2	0.07092227
50	0x3d6d1417	0.057880487
51	0xbd8948a6	-0.0670331
52	0x3b8ad76e	0.004237107
53	0xbdaed131	-0.08535994
54	0x3b473704	0.0030397782
55	0xbcfd728c	-0.03093841
56	0xbd9653f0	-0.073402286
57	0xbc3ee5f6	-0.011651507
58	0x3bd0aae9	0.0063680303
59	0xbcc524ff	-0.024065493
60	0x3caea28f	0.021317748
61	0x3d0a8666	0.03381958
62	0x3db38f41	0.08767558
63	0x3ceee12e	0.029160108
64	0xbd010835	-0.031501967
65	0xbd458d7b	-0.04823063
66	0x3ca1f830	0.019771665
67	0xbd8439ed	-0.06456361
68	0xbd7da55c	-0.061925277
69	0x3c8eacbd	0.017416352
70	0xbcfbf89f	-0.0307582
71	0x3d750752	0.059821434
72	0xbd91872d	-0.07105861
73	0xbcf409f2	-0.029789899
74	0x3da0ce12	0.07851805
75	0xbd2faeeb	-0.042891424
76	0xbba90ee9	-0.005159248
77	0x3cbdabb2	0.02315316
78	0xbbbab5f1	-0.0056979586
79	0x3d2709d4	0.040780857
80	0x3d250fa4	0.04029812
81	0xbd8ee0be	-0.0697646
82	0x3d704349	0.058657918
83	0x3da1ceec	0.07900795
84	0x3cfdcf5b	0.030982664
85	0x3b9add88	0.0047261156
86	0x3d84e6e2	0.0648935
87	0xbaee1c7e	-0.001816645
88	0x3d9db94a	0.07701357
89	0xbbc97d95	-0.0061490037
90	0xbd24ddae	-0.040250473
91	0xbd1ffa11	-0.03905684
92	0xbbfb7dfc	-0.0076749306
93	0x3c54ce4a	0.012988636
94	0xbd7d6542	-0.061864145
95	0xbd5c6a04	-0.053812042
96	0xbd7cb404	-0.061695114
97	0x3d8253a0	0.063636065
98	0x3d9fbc51	0.077995904
99	0xbd8923aa	-0.066962555
100	0xbc78701a	-0.015163446
101	0x3d2ae9e9	0.04172698
102	0xbd9f029d	-0.0776417
103	0x3db3e0cb	0.0878311
104	0x3d9738f5	0.073839106
105	0x3cc802dc	0.024415426
106	0xbcb5a30e	-0.022172477
107	0xbd99e440	-0.07514238
108	0x3d084202	0.033266075
109	0x3d7b1226	0.061296605
110	0xbd76e6a6	-0.060278557
111	0xbd37d4ce	-0.04488068
112	0xbd352f93	-0.044234823
113	0x3c52b2ae	0.012859983
114	0x3db05ec0	0.08611822
115	0xbd902443	-0.070381664
116	0xbd96d61e	-0.07365058
117	0xbd9274e9	-0.07151205
118	0x3da212bd	0.0791373
119	0xbcc29505	-0.023752699
120	0xbd8d062d	-0.068859436
121	0x3c68dfb0	0.0142134875
122	0xbdacbe05	-0.08434681
123	0xbd82c248	-0.063847125
124	0x3cc129a2	0.023579422
125	0x3db46597	0.08808439
126	0x3c55c5a5	0.01304761
127	0x3bb733eb	0.005590906
